…
	- In the HW1P2 directory, type "python3 main.py" to run the model
	- After the model finishes, find predicted test_labels_v2.npy and csv files under data folder
Dataloader design:
	- Used a python list to store (i, j) to index into into the list, where i is the utterance
	  index and j is the frame index. I used python.take to include 12 left and right frames of
	  the current indexed frame.

Steps taken to train my model that gets the optimal result:
- First train model with configuration of the following structure
	hidden layer dimensions: [2048,1024,1024,1024,1024,512,256]
	MLP(
	  (net): Sequential(
	    (0): Linear(in_features=1000, out_features=2048, bias=True)
	    (1): BatchNorm1d(2048, eps=1e-05, momentum=0.1, affine=True, track_running_stats=True)
	    (2): LeakyReLU(negative_slope=0.01)
	    (3): Linear(in_features=2048, out_features=1024, bias=True)
	    (4): BatchNorm1d(1024, eps=1e-05, momentum=0.1, affine=True, track_running_stats=True)
	    (5): LeakyReLU(negative_slope=0.01)
	    (6): Linear(in_features=1024, out_features=1024, bias=True)
	    (7): BatchNorm1d(1024, eps=1e-05, momentum=0.1, affine=True, track_running_stats=True)
	    (8): LeakyReLU(negative_slope=0.01)
	    (9): Linear(in_features=1024, out_features=1024, bias=True)
	    (10): BatchNorm1d(1024, eps=1e-05, momentum=0.1, affine=True, track_running_stats=True)
	    (11): LeakyReLU(negative_slope=0.01)
	    (12): Linear(in_features=1024, out_features=1024, bias=True)
	    (13): BatchNorm1d(1024, eps=1e-05, momentum=0.1, affine=True, track_running_stats=True)
	    (14): LeakyReLU(negative_slope=0.01)
	    (15): Linear(in_features=1024, out_features=512, bias=True)
	    (16): LeakyReLU(negative_slope=0.01)
	    (17): Linear(in_features=512, out_features=256, bias=True)
	    (18): LeakyReLU(negative_slope=0.01)
	    (19): Linear(in_features=256, out_features=138, bias=True)
	  )
	)
	kContext size: 12
	optimizer: Adam with 0.001 learning rate with learning rate scheduler
	learning rate scheduler: ReduceLROnPlateau, mode=min, patientce=2
	batch size: 256
	number of Epochs: 5
	Save the model in file optim_Epoch_4contextK_v2.txt
- Then load the model from optim_Epoch_4contextK_v2.txt and continue training same expect
	number of Epochs: 9
…
